# Parameters
nc: 3 # number of classes
scales: # model compound scaling constants, i.e. 'model=yolo11n.yaml' will call yolo11.yaml with scale 'n'
#   [depth, width, max_channels]
  n: [0.50, 0.25, 1024] # summary: 319 layers, 2624080 parameters, 2624064 gradients, 6.6 GFLOPs
  s: [0.50, 0.50, 1024] # summary: 319 layers, 9458752 parameters, 9458736 gradients, 21.7 GFLOPs
  m: [0.50, 1.00, 1024] # summary: 409 layers, 20114688 parameters, 20114672 gradients, 68.5 GFLOPs
  l: [1.00, 1.00, 1024] # summary: 631 layers, 25372160 parameters, 25372144 gradients, 87.6 GFLOPs
  x: [1.00, 1.50, 1024] # summary: 631 layers, 56966176 parameters, 56966160 gradients, 196.0 GFLOPs
scale: "l"

# YOLO11n backbone
backbone:
  # [from, repeats, module, args]
  # stream one
  - [-1, 1, Conv, [64, 3, 2]] # 0-P1/2
  - [-1, 1, Conv, [128, 3, 2]] # 1-P2/4
  - [-1, 2, C3k2, [256, False, 0.25]] # 2-p2/4
  - [-1, 1, Conv, [256, 3, 2]] # 3-P3/8
  - [-1, 2, C3k2, [512, False, 0.25]] # 4-p3/8
  # stream two
  - [ -4, 1, Conv, [ 64, 3, 2 ] ] # 5-P1/2
  - [ -1, 1, Conv, [ 128, 3, 2 ] ] # 6-P2/4
  - [ -1, 2, C3k2, [ 256, False, 0.25 ] ] # 7-p2/4
  - [ -1, 1, Conv, [ 256, 3, 2 ] ] # 8-P3/8
  - [ -1, 2, C3k2, [ 512, False, 0.25 ] ] # 9-p3/8
  #transformer fusion
  - [ [ 4,9 ], 1, GPT, [ 512 ] ]   # 10-P3/8
  - [ [ 4,10 ], 1, Add2, [ 512,0 ] ]    # 11-P3/8 stream one x+trans[0]
  - [ [ 9,10 ], 1, Add2, [ 512,1 ] ]    # 12-P3/8 stream two x+trans[1]

  # stream one
  - [11, 1, Conv, [512, 3, 2]] # 13-P4/16
  - [-1, 2, C3k2, [512, True]] # 14-p4/16
  # stream two
  - [12, 1, Conv, [512, 3, 2]] # 15-P4/16
  - [-1, 2, C3k2, [512, True]] # 16-p4/16
  #transformer fusion
  - [ [ 14,16 ], 1, GPT, [ 512 ] ]   # 17-P4/16
  - [ [ 14,17 ], 1, Add2, [ 512,0 ] ]    # 18-P4/16 stream one x+trans[0]
  - [ [ 16,17 ], 1, Add2, [ 512,1 ] ]    # 19-P4/16 stream two x+trans[1]

  # stream one
  - [18, 1, Conv, [1024, 3, 2]] # 20-P5/32
  - [-1, 2, C3k2, [1024, True]] # 21-p5/32
  - [-1, 1, SPPF, [1024, 5]] # 22-p5/32
  - [-1, 2, C2PSA, [1024]] # 23-p5/32
  # stream two
  - [19, 1, Conv, [1024, 3, 2]] # 24-P5/32
  - [-1, 2, C3k2, [1024, True]] # 25-p5/32
  - [-1, 1, SPPF, [1024, 5]] # 26-p5/32
  - [-1, 2, C2PSA, [1024]] # 27-p5/32
  # transformer fusion
  - [ [ 23,27 ], 1, GPT, [ 1024 ] ]   # 28-P5/32
  - [ [ 23,28 ], 1, Add2, [ 1024,0 ] ]    # 29-P5/32 stream one x+trans[0]
  - [ [ 27,28 ], 1, Add2, [ 1024,1 ] ]    # 30-P5/32 stream two x+trans[1]

  # Add Block
  - [ [ 11,12 ], 1, Add, [ 1 ] ] # 31-p3/8 fusion backbone p3
  - [ [ 18,19 ], 1, Add, [ 1 ] ] # 32-p4/16 fusion backbone p4
  - [ [ 29,30 ], 1, Add, [ 1 ] ] # 33-p5/32 fusion backbone p5
# YOLO11n head
head:
  - [-1, 1, nn.Upsample, [None, 2, "nearest"]] # 34
  - [[-1, 32], 1, Concat, [1]] # 35 cat backbone P4
  - [-1, 2, C3k2, [512, False]] # 36

  - [-1, 1, nn.Upsample, [None, 2, "nearest"]] # 37
  - [[-1, 31], 1, Concat, [1]] # # 38 cat backbone P3
  - [-1, 2, C3k2, [256, False]] # 39 (P3/8-small)

  - [-1, 1, Conv, [256, 3, 2]] # 40
  - [[-1, 36], 1, Concat, [1]] # 41 cat head P4
  - [-1, 2, C3k2, [512, False]] # 42 (P4/16-medium)

  - [-1, 1, Conv, [512, 3, 2]] # 43
  - [[-1, 33], 1, Concat, [1]] # 44 cat head P5
  - [-1, 2, C3k2, [1024, True]] # 45 (P5/32-large)

  - [[39, 42, 45], 1, Detect, [nc]] # Detect(P3, P4, P5)
